SnakeAI/model/model.pth (torch, 16799 bytes, 4 tensors)

linear1.weight f4 [256, 11]
000000 26 f2 4f bd 17 b5 15 3f 07 3c fd bd 76 0c 1e 3c
       -0.05076804 0.58479446 -0.12364965 0.009646526
000010 0a bc 7f 3d f0 e5 0e 3e cf 09 d1 3e 35 f2 04 3e
       0.062435187 0.13954902 0.40827796 0.1298302
000020 d0 2d 51 3e cf b1 b3 3b f2 30 86 be 18 5d 4b 3e
       0.20427632 0.005483843 -0.26209217 0.19859731
000030 21 f4 e5 bd c3 77 fe 3e 53 47 94 3e 06 70 92 bd
       -0.112282045 0.49700746 0.28960666 -0.07150273
000040 3c 57 bb 3e 73 ce d5 3e f4 1b 0f be 32 11 69 3e
       0.36589992 0.4175907 -0.13975507 0.22760466
000050 12 2a 65 be 50 39 8f be a3 c7 da bd 79 5f 63 be
       -0.2237933 -0.27973413 -0.10682609 -0.22204389
000060 25 31 64 3e ca f6 68 be 37 ed 6c 3d 43 9e a1 bb
       0.22284372 -0.22750393 0.057843413 -0.0049321963
000070 a9 18 6e 3e a9 5d 8f 3e 1f d3 08 3e f9 6f da be
       0.23251595 0.28001145 0.13361786 -0.42663553
000080 c4 ef 70 be db b7 b7 3d a2 6b 96 3d 82 73 a2 3d
       -0.23528963 0.089706145 0.07344748 0.079321876
000090 5c 8b 26 3e ed ad dc bd 39 34 8a 3d 81 2e 26 3d
       0.16264099 -0.10775361 0.06748242 0.040571693
0000a0 a5 27 68 be bd 41 f3 3d 68 64 53 3e 65 80 bc be
       -0.22671373 0.11877773 0.2064377 -0.36816707
0000b0 0f 4b d7 3e a3 56 03 3c e6 9c c2 3e c5 a6 0d bc
       0.42049453 0.008016261 0.3801033 -0.008645718
0000c0 e8 1b 1c 3e 2d 97 b1 3e 04 76 3b 3c 15 46 6e 3e
       0.1524502 0.3468565 0.011441711 0.23268922
0000d0 d0 65 ab 3e 91 84 e7 bc 8e 8a 55 3e 43 bd 7c 3d
       0.33476114 -0.028261455 0.20853636 0.06170393
0000e0 51 4d 95 3e 83 bd 4f be 51 1a 0a 3d 5c b1 01 bc
       0.2916055 -0.20287137 0.033716504 -0.007915821
0000f0 98 9e 9f be 90 0d 46 3e 7b 3b 4f 3e 0e c8 01 be
       -0.31175685 0.19341111 0.20237534 -0.12673971
000100 32 4a 1b 3e b8 6f 8e 3e 88 02 73 be 4f 21 16 3f
       0.15165022 0.2781961 -0.23731434 0.58644575
000110 88 26 8d be 27 c5 b1 be 5e 67 84 be 6a 95 fa bd
       -0.2756846 -0.34720728 -0.25860113 -0.1223553
000120 8d a8 17 3e b2 98 10 be 7d b6 b7 be 12 f8 4b 3e
       0.14810391 -0.14120749 -0.35881415 0.1991885
000130 89 57 7c bd 41 be 61 be 39 ab f3 3c 30 25 19 be
       -0.061606918 -0.22045232 0.029744731 -0.14955592
000140 5c 79 91 bd 13 8f f2 bd 22 5f 22 3e 24 40 0c bd
       -0.071032256 -0.118436955 0.15856603 -0.034240857
000150 9d 9b 30 3d fc 1c 26 be 56 e5 f2 bd 55 04 84 be
       0.043117154 -0.16221994 -0.118601486 -0.25784555
000160 3a 6d cf 3e 55 89 a6 be 1e db 84 3b 45 9a 16 be
       0.4051302 -0.3252665 0.004054441 -0.14707287
000170 24 a2 ee 3d 6b c3 89 3d 5e 2e 28 3e b0 da 31 3e
       0.116520196 0.06726726 0.16423938 0.17368579
000180 07 cb 80 3e 57 2e 2e be 90 3b 23 3e f7 65 21 bd
       0.25154898 -0.17009865 0.1594069 -0.039403882
000190 f9 cf 83 3e 8e 61 02 be a4 a6 9c 3d 3e 4e 93 be
       0.25744608 -0.12732527 0.07648972 -0.28770632
0001a0 6e 7f 4e be 52 63 97 3e ca e7 99 3d b6 b3 3f 3d
       -0.20165798 0.29567963 0.075149134 0.046802245
0001b0 b0 ad e3 3d 34 61 42 3e 1c 35 ce be 19 18 9e 3b
       0.11117113 0.18982393 -0.40274894 0.00482465
0001c0 0e b8 08 3f 2e 92 7d be ec 25 98 3c a1 fb fb 3d
       0.53405845 -0.24762794 0.01857277 0.12303854
0001d0 58 84 51 ba 20 e6 1c 3d 8f dc 63 bd 8d 31 90 bd
       -0.0007992438 0.0383054 -0.055630263 -0.07040701
0001e0 01 51 6d 3e 6e cc d5 3e bd 09 42 3e f4 e2 bb be
       0.23175432 0.4175753 0.18949027 -0.3669659
0001f0 2f 0a 2b be 4f 40 af 3d 88 70 96 3d 04 c2 b3 bd
       -0.16703103 0.08557188 0.073456824 -0.0877724
000200 20 ab ce 3c 82 33 a5 3e 74 60 64 be 3f 47 59 3d
       0.025228083 0.3226586 -0.22302419 0.05304646
000210 2f 7e 97 be e3 db 30 be 0c 67 0c bd 03 f0 a6 3d
       -0.29588458 -0.1727138 -0.03427796 0.08151247
000220 12 19 76 3e 83 68 c1 3e 2f ca a1 be bb 0d c0 be
       0.24033001 0.3777505 -0.31599566 -0.37510476
000230 1b 8c 67 3e d4 57 cb 3d fd f6 3a be ef 18 d0 3e
       0.2261204 0.09928861 -0.18258281 0.40644023
000240 1f ee b6 be 32 89 f4 3e e3 e0 bb 3c e7 47 12 bc
       -0.35728547 0.47760922 0.022934383 -0.008928276
000250 0b 34 97 3e ea e9 b4 3d 27 7d d4 3b f1 84 9e 3e
       0.29531893 0.08833678 0.006484646 0.309608
000260 b0 56 98 bd cb d0 49 3e 78 47 2d be 44 78 ba 3e
       -0.07438409 0.19708554 -0.16921794 0.3641988
000270 f5 09 8b bc c8 4a 0b 3e 38 c2 c0 3c 92 9b b9 bd
       -0.016972521 0.13602746 0.02353011 -0.09062876
000280 8c 1e 75 3e 68 fe a3 3e be b4 7b 3e 9a 1b 6d 3e
       0.23937434 0.32030034 0.24580666 0.2315506
000290 6c 69 ed 3c 97 dc 7c bd fa 8d 24 3c bd 71 af be
       0.028980933 -0.06173381 0.0100436155 -0.34266463
0002a0 f2 98 46 be f6 e1 a0 3e 5b 1f ce bd 3e 55 18 be
       -0.19394282 0.31422395 -0.10064574 -0.14876267
0002b0 34 e2 93 3b 8e cc c6 3d 5e ce 93 be 97 e9 b9 be
       0.0045130495 0.097069845 -0.28868383 -0.36311027
0002c0 90 1a f3 be 43 79 15 3f 6e 44 04 bd 89 a5 93 3e
       -0.47481203 0.58388156 -0.032291822 0.2883723
0002d0 f7 81 d5 3d 9c 3f ae be 5e d4 15 3e 99 2d a7 3d
       0.104251795 -0.34032905 0.14631793 0.08162994
0002e0 e0 77 89 bd 4d 22 6c 3d b8 7c be 3d 27 ad 3f be
       -0.067123175 0.0576499 0.09301132 -0.18718396
0002f0 c0 b2 2c be f0 95 5c 3d de 55 84 be d5 49 f5 3d
       -0.16865063 0.05385393 -0.2584676 0.11976973
000300 64 1c 3a be 10 d6 2f 3d 35 93 28 3d 38 18 9a bd
       -0.18174893 0.042928755 0.041156013 -0.075241506
000310 00 b0 3c 3b f1 15 5d bd 7e be bc 3e 28 84 25 3e
       0.0028791428 -0.053976003 0.36864084 0.16163695
000320 3e 92 9a 3c c9 0e ca bd e2 20 8c be 73 db a2 bd
       0.018868562 -0.09866101 -0.27368838 -0.07952013
000330 27 73 0d 3e c6 52 6b 3e 4f 6f ba 3d 92 13 1c 3e
       0.13813458 0.22980794 0.09103262 0.1524184
000340 dc 69 37 be 52 8c e1 3e df 24 80 be d6 3e 77 be
       -0.17911476 0.44052368 -0.2502813 -0.24145064
000350 00 30 c8 3c 34 aa 92 3c ef 0e a5 bb ed 52 9e ba
       0.02443695 0.017903425 -0.0050371806 -0.0012079157
000360 56 81 4a 3d aa 0d 4e be bf f8 68 3d aa ae ea bd
       0.04943975 -0.201224 0.056877848 -0.11459096
000370 2a e0 8a 3e fd d8 ca 3e 68 51 6c be 30 bb fa bc
       0.2712415 0.39618674 -0.23077929 -0.030606836
000380 24 49 a6 3d d1 b5 ce bb 11 e1 e3 bc 68 16 3e bd
       0.08119419 -0.0063082953 -0.027817281 -0.046408087
000390 c3 51 c8 3e b6 d7 99 be fb 38 bd 3e 6f b2 17 3f
       0.3912488 -0.30047387 0.36957535 0.59256643
0003a0 33 b7 10 bf 25 29 65 3e dc fa 33 3c 52 6f 07 3e
       -0.5652954 0.22378977 0.0109851025 0.13226059
0003b0 d7 8f 95 bd 22 be 82 3e e8 24 8d 3e f9 a2 aa bd
       -0.07302826 0.25535685 0.2756722 -0.08331866
0003c0 2f 83 ad 3e 6c 67 13 3e 5a d9 fa 3e 81 7d 4b be
       0.33889148 0.14394921 0.4899395 -0.19872095
0003d0 fc 6b e9 3e 8e a5 81 3c e9 a8 12 3d 6e ee 63 be
       0.45590198 0.015826013 0.035805617 -0.22258922
0003e0 72 b2 d9 3c 3e 69 6d 3b 57 bd 8c be f4 ab 93 3e
       0.026574347 0.003622606 -0.27488205 0.28842127
0003f0 e5 0f 54 bd 87 70 25 bd 03 a0 cf bb db f9 a0 3e
       -0.05177297 -0.040390518 -0.0063362136 0.31440625

linear1.bias f4 [256]
000000 02 19 cd bd fe 6f 22 be 1f 9d dd bd ba 13 00 be
       -0.100145355 -0.15863034 -0.10820984 -0.12507525
000010 bf 4b 67 be 5a b3 58 3e 84 93 46 3e e8 cc c7 bc
       -0.22587489 0.21162167 0.1939221 -0.0243897
000020 2a 59 26 bd 93 68 52 be 5d 40 86 3e ff 7e 1c bc
       -0.040612377 -0.20547704 0.2622098 -0.009551763
000030 05 a4 3e be aa c8 83 bd ab 43 02 3c 9b b9 29 bd
       -0.18617256 -0.06434758 0.007950704 -0.041436773
000040 6d c6 fa 3d 58 f1 a8 be 95 b7 26 3e 7c cf 81 be
       0.12244878 -0.3299663 0.16280968 -0.2535361
000050 30 f2 21 be e7 bf fa bd 48 0f 6b bc 1d 12 64 be
       -0.15815043 -0.12243634 -0.014346905 -0.22272535
000060 0c 66 69 3d 71 f3 37 3e 65 9b 38 be ff bd 19 bd
       0.056982085 0.1796396 -0.18028028 -0.03753471
000070 36 80 3a be 77 0f db 3c b0 89 36 3d 73 82 0c 3e
       -0.18212971 0.026740773 0.044564903 0.13721637
000080 69 d6 73 be f4 71 df be d4 ba 80 3d f1 ca b2 3d
       -0.2381226 -0.43641627 0.06285635 0.08730114
000090 af 4b 0d 3e 5a f0 10 be 36 78 54 3e 6c 31 90 bd
       0.13798402 -0.14154187 0.20748982 -0.070406765
0000a0 c8 79 39 be b7 86 95 be da 40 c0 bd 0e ce 8b 3c
       -0.18112862 -0.29204342 -0.093873695 0.017066028
0000b0 95 71 b8 be c1 12 b8 bd 4d 29 5a 3e 55 2a ac be
       -0.36024156 -0.08987952 0.21304817 -0.33626047
0000c0 43 06 36 be 8a 7e c6 3c 00 41 73 3e fb d6 13 bd
       -0.17775826 0.02423026 0.23755264 -0.036093693
0000d0 73 82 11 be 7c f2 97 be f7 86 b6 3e bb 87 21 3d
       -0.14209919 -0.29677188 0.35649845 0.039436083
0000e0 82 6b 4c bd 78 90 60 be 42 7a 0b be 00 7c 80 3e
       -0.049907215 -0.2193011 -0.13620856 0.25094604
0000f0 9c 62 14 3d 63 a6 0a 3e ca 0a 89 3e f9 4a 63 3e
       0.036226854 0.13540034 0.26766044 0.22196569
000100 36 91 80 3d 43 b6 e7 3d c4 d2 c6 3d 0c ee 92 bd
       0.06277697 0.113140605 0.09708169 -0.0717431
000110 24 d8 69 bd 59 46 cb 3c ae 46 5c bd c7 2f b0 3d
       -0.057090893 0.024813818 -0.053778343 0.08602863
000120 9f 51 4e be 66 84 81 3e d4 82 a6 bd 2c 4a ca 3e
       -0.20148323 0.25296324 -0.08130422 0.39509714
000130 d0 e1 11 3e d0 8f ff 3d c6 24 c6 bc 06 18 68 3e
       0.14246297 0.12478602 -0.024187457 0.22665414
000140 2b ae 86 be e7 62 11 be e5 8f b3 be 76 04 8c be
       -0.26304755 -0.14197885 -0.3507072 -0.27347153
000150 c7 44 e2 3d d5 23 a5 3c c3 62 58 bd 22 37 44 be
       0.110482745 0.020158688 -0.05282856 -0.19161656
000160 0c c2 29 bd c8 97 98 bc 19 7f 58 3e 71 5c 2b bd
       -0.041444823 -0.018627062 0.21142234 -0.041836206
000170 02 88 91 3e e5 77 96 bd 74 6b 33 3c 73 60 88 3d
       0.28424078 -0.07347087 0.010950912 0.06659021
000180 48 d3 9e 3d a6 46 28 be 9a 07 8f 3d 46 25 32 be
       0.077551425 -0.164332 0.06983872 -0.17397031
000190 6c b0 16 3e f0 7c 45 be 62 38 c8 3e 00 36 b5 3d
       0.14715737 -0.19285941 0.39105517 0.0884819
0001a0 b5 8a 0c 3e 4a e8 62 be f5 71 a8 bd a0 5e 24 3d
       0.13724788 -0.22158924 -0.082248606 0.040129304
0001b0 7a ba 74 3d 73 01 9e 3e d1 8e e4 bd 15 c4 06 be
       0.05974815 0.3086048 -0.111600526 -0.13160737
0001c0 6e 72 bc be b3 b2 c0 bd ba 20 d7 bd ac dc 40 3e
       -0.36806053 -0.09409084 -0.10504289 0.1883418
0001d0 e7 83 34 3e dc 1a a7 be 8f db 4e bc d2 79 f9 bd
       0.17628442 -0.3263768 -0.012625589 -0.121814385
0001e0 71 69 cb 3c 37 b1 ed 3d 63 00 c1 3d 24 99 82 be
       0.024830552 0.11606067 0.09423902 -0.25507462
0001f0 a0 9d 22 bd ab 26 a1 bd 8d 24 65 3e 26 e9 2d bc
       -0.039701104 -0.078687035 0.22377224 -0.010614669
000200 a5 d4 b1 3d d3 d2 f3 bd 85 de f7 3d 93 36 9d 3d
       0.08683137 -0.11905446 0.12102989 0.07676425
000210 20 f1 57 be 5d bb 37 3e e3 20 0a be ef 07 55 3e
       -0.21088076 0.17942567 -0.13489108 0.20803808
000220 db a1 a2 bc 9d b0 93 3e 34 f8 4a be e6 0e 57 3e
       -0.01985257 0.28845683 -0.19821244 0.21001777
000230 d8 0e 97 3d 25 ba 2e 3e 6d fe 46 bd fd 1c 36 bd
       0.07375878 0.17063196 -0.048582483 -0.04446124
000240 e8 0d 83 bc 36 1d b6 bd 4b 3b 1c bd d8 99 0e bd
       -0.015997842 -0.0889229 -0.038142484 -0.034814686
000250 77 ac 88 be fd f6 3b be 6b df 7d be 63 72 30 bd
       -0.2669408 -0.18355937 -0.24792258 -0.043077838
000260 81 3b 38 bc 6b 91 1e 3e 6f 36 82 3e 34 5f 11 be
       -0.011244656 0.1548516 0.25432155 -0.14196473
000270 c0 71 36 be 4f 8c 8a be a9 c2 5a be 2b fa cd bd
       -0.1781683 -0.27060172 -0.2136332 -0.100574814
000280 19 a5 b4 3d 4b c6 18 be e2 54 f4 bb 39 3c 55 be
       0.088205524 -0.14919393 -0.007456408 -0.20823754
000290 28 d7 e9 bd a0 68 93 3e 53 13 ac be 50 3b a9 3e
       -0.11417991 0.2879076 -0.33608493 0.33053064
0002a0 58 a9 1f 3e 91 b8 97 be 50 64 e2 bd bc 53 42 be
       0.15591943 -0.29633 -0.11054289 -0.18977255
0002b0 45 08 29 3c d4 95 ae 39 94 0f c6 3c 67 c9 4d 3e
       0.010316913 0.00033299497 0.02417735 0.2009636
0002c0 75 e6 2d be bc 9b 2c 3c de 13 8a be b3 85 10 3e
       -0.16982444 0.010535177 -0.26968282 0.14113502
0002d0 60 63 81 be b0 c4 11 bd 46 0e 06 3c 63 75 d0 bd
       -0.2527113 -0.035587966 0.008182114 -0.1017864
0002e0 52 82 96 3d 66 29 8f 3a d8 a2 5f 3e c9 06 c7 3d
       0.073490754 0.0010922372 0.21839464 0.09718091
0002f0 95 c8 a9 3e 31 9c e3 3d 0c 1d 59 3d 89 ab 20 3b
       0.33160844 0.111137755 0.053006217 0.0024516305
000300 b5 9f 6b be 72 9d 74 be 7e 9c 74 bc 24 5d 50 be
       -0.23010142 -0.23888186 -0.014929889 -0.2034803
000310 3a e8 79 bc 8f 92 59 bd 8a 07 af bd 68 15 e1 bc
       -0.015253121 -0.053118285 -0.0854636 -0.027476028
000320 60 b8 56 3d 9b 47 d9 bd 97 d5 d8 3d 37 8a 05 be
       0.052421927 -0.10609361 0.10587614 -0.13041006
000330 3b 48 4b be fc a4 6b 3e 55 cb e1 3d f8 a5 ff 3d
       -0.19851772 0.23012155 0.11025111 0.12482828
000340 e5 5a 72 be a5 55 3d 3e 0b ed 4c be a6 aa 27 bd
       -0.23667486 0.18489702 -0.200123 -0.040934227
000350 a5 9c ae be 3c 6d 0b 3c 70 68 40 3e 9a ab 50 3e
       -0.34103885 0.00850993 0.1878984 0.20377961
000360 43 50 ec 3c d6 67 d8 3d b6 bf 33 3d 93 50 8e 3e
       0.028846866 0.1056668 0.043884 0.27795848
000370 50 37 84 bd 97 28 b2 bc 52 5c 08 be 8a 5b 5b 3e
       -0.064558625 -0.02174787 -0.13316467 0.21421638
000380 7e 9e 37 be 61 71 a6 bd a6 17 b6 3e bc a3 6d 3e
       -0.17931554 -0.08127094 0.35564917 0.23206991
000390 ba 79 67 3d 5d c9 c9 3d 25 6f 6d bd 48 a5 87 3d
       0.056512572 0.0985286 -0.057967324 0.06623322
0003a0 e1 e1 02 bb 14 93 92 be b1 52 37 3e 23 69 19 bb
       -0.001997106 -0.28627837 0.17902638 -0.0023408614
0003b0 26 8c 18 be 1f 3b e1 3d 5b a0 da 3d 81 1a 3a bd
       -0.14897212 0.109976046 0.10675117 -0.045435432
0003c0 02 a3 2f 3c 45 21 a2 3e c3 78 fe 3c 97 e8 28 3c
       0.010720016 0.31666008 0.031063443 0.01030936
0003d0 1a 42 39 be 76 2c 6a bd 48 b3 75 3e 56 d2 7a 3d
       -0.18091622 -0.057171308 0.23994172 0.06123575
0003e0 0c 01 01 be fd 23 c9 bd 42 ea 8d bd fb ce 58 be
       -0.12598056 -0.09821317 -0.06929447 -0.21172707
0003f0 34 bd b5 3d b3 bd 28 3e 79 9c c0 bd a4 7d 80 be
       0.08873978 0.16478615 -0.09404845 -0.25095856

linear2.weight f4 [3, 256]
000000 a1 a2 d8 bd 55 bd 87 be 35 26 3d be 11 8a ba bd
       -0.10577894 -0.26511636 -0.18471606 -0.09108365
000010 6d cd 3b be 8a 08 ce bc ee ea 0c 3e f3 29 b4 bd
       -0.18340082 -0.025150556 0.13761494 -0.08797064
000020 6d 5e db bd 3c 2b 0c 3d 53 b8 5b 3d e8 dc 4a be
       -0.1071137 0.03422092 0.053642582 -0.19810832
000030 f0 c6 ed 3d e8 c0 81 bd e3 d8 1a bd 10 90 1e 3e
       0.1161021 -0.06335622 -0.037804496 0.15484643
000040 24 22 d1 3d ac ee 86 3d fa 03 95 bd c7 73 cb bd
       0.1021159 0.06588492 -0.07276149 -0.09934192
000050 23 54 b3 bd 83 3b 25 be bd 11 a4 be fd 00 02 bc
       -0.08756282 -0.16135983 -0.32044783 -0.007934806
000060 5a c3 6f 3e 44 a4 38 3d 0c 26 5d be fd 2a 28 3e
       0.23414364 0.04507853 -0.21596545 0.16422649
000070 20 2f f9 bd 71 85 84 3c 4f 4b 8a be 65 8b dc 3c
       -0.121671915 0.016176911 -0.2701058 0.026921937
000080 42 f9 c1 bd a1 8f e3 bd 23 1e 6c bc 6e c7 a0 3d
       -0.0947137 -0.111113794 -0.014411482 0.07850538
000090 1a 66 b9 bc 3b e8 f4 3d 3d 74 13 3e 0a fb 99 3d
       -0.022631694 0.11958357 0.1439981 0.07518585
0000a0 0c 35 9f be 5a f4 ab 3b 06 69 57 be e8 da 8d 3d
       -0.3109516 0.005247635 -0.21036157 0.06926519
0000b0 75 6d d9 38 58 c1 50 3d cb a4 cf 3a 25 96 72 bd
       0.00010367754 0.050965637 0.0015841959 -0.05922522
0000c0 3a 2e 2e 3a 43 0e 07 3e c3 b1 21 3e fc 47 94 be
       0.00066444615 0.13189034 0.15790467 -0.2896117
0000d0 c3 4b be bd 92 d2 4f bd 43 80 46 3e 0f ad ca bd
       -0.09291794 -0.050737925 0.19384865 -0.098962896
0000e0 f0 d3 d7 bd a3 43 bf 3c b5 43 c0 bd af 1e 44 3d
       -0.10538471 0.023347681 -0.09387914 0.047880825
0000f0 8f be 8c 3d d0 fa 39 bd 3d c5 19 3e 57 f2 89 3d
       0.06872284 -0.04540521 0.15016647 0.06735676
000100 29 55 75 3e 3c 5b 0f be c3 5c 55 bd 58 d1 d2 3e
       0.23958267 -0.13999647 -0.052090418 0.41175342
000110 1a 15 c9 bd 67 9b 9a 3e 78 cd 5b 3c 1b be 8a 3d
       -0.09818478 0.30196688 0.013415687 0.06774541
000120 39 a9 42 be 3f e5 34 3e f9 a2 7a be 5c 5b 9b 3d
       -0.19009866 0.17665575 -0.24476232 0.07585785
000130 09 b4 91 3d 5b a0 30 3b 84 7f 3d bc 68 3c 04 3e
       0.07114417 0.0026951048 -0.011566047 0.12913668
000140 53 df bd be ef 2b 49 be 9f 07 b3 3c a1 ff 69 be
       -0.37084445 -0.19645666 0.02185422 -0.22851421
000150 d3 48 13 3d 52 f7 49 be b3 ad 77 be c0 d4 7d bd
       0.035958122 -0.19723251 -0.24187355 -0.061970472
000160 d6 cd 80 bc 85 66 15 be d9 8a f9 3d db cb be bd
       -0.01572315 -0.1458989 0.12184686 -0.09316226
000170 38 eb 66 3e 9c e4 d4 3c 9b d1 1e be 3e 6d 9e bd
       0.22550666 0.025987916 -0.15509646 -0.0773568
000180 ab 5e 81 3d 5b 9b 9c 3d 64 95 3d be 8c ce ae 3e
       0.063168846 0.07646819 -0.18514019 0.34141958
000190 2f 1b 04 3e ae 1d 02 be 4e 8e ad 3e ff 73 11 bd
       0.12900995 -0.12706634 0.33897632 -0.035511013
0001a0 9d 69 a3 3d a9 16 99 be f8 a0 17 be c0 43 2e be
       0.079791285 -0.299001 -0.14807498 -0.17018032
0001b0 de 74 be bd 0e ce 3c 3d af e8 b1 bd 9b 48 88 3d
       -0.092996344 0.046094947 -0.08686959 0.066544734
0001c0 2c ed 20 3d fd ec 8f be e0 bc 89 3e 47 f8 12 3e
       0.039288685 -0.28110495 0.26901913 0.14352523
0001d0 e2 f7 81 3e 93 9f 4b 3d e8 34 03 3e fc f7 39 3e
       0.25384432 0.04971273 0.12813151 0.18161005
0001e0 e7 a5 01 3d fd bc fe bc d5 c8 c2 be ef 5a 0d be
       0.031652357 -0.031095976 -0.38043848 -0.1380422
0001f0 30 a3 ab 3c c6 e4 24 be 30 78 d7 bc 4a 7e 41 be
       0.020951837 -0.16102895 -0.026302427 -0.18895832
000200 54 ed 1f bd 15 14 65 be 3e 7f 40 be 25 af aa bd
       -0.039044693 -0.22370942 -0.18798539 -0.083341874
000210 c2 9a 53 bc c4 30 d9 bd 8e 4a ec 3c 52 5d dc 3c
       -0.012915315 -0.106050044 0.028844144 0.026899967
000220 5d e7 1a be 4a 4a 39 3e d0 17 a7 bd 4b 33 6e 3c
       -0.1512732 0.18094745 -0.08158839 0.014538596
000230 09 cd 8d be 20 7a cb bd cd 2e 3a bd c2 8a 4d be
       -0.27695492 -0.09935403 -0.04545479 -0.20072463
000240 cf dc 1e ba ec dd 58 be e9 9a 2d be 92 ae 94 be
       -0.0006060125 -0.21178406 -0.16953625 -0.29039437
000250 14 29 7e be 02 91 97 3c 48 57 8c be a0 2e 22 3e
       -0.24820358 0.018501762 -0.2741034 0.15838099
000260 24 04 46 bd 25 fb ac bd a0 e3 5e 3e dc a0 b7 bd
       -0.048343793 -0.084463395 0.2176652 -0.08966228
000270 a5 9a 60 bd 24 7c 53 3b 48 80 31 be 83 47 90 3e
       -0.05483498 0.0032270039 -0.17334092 0.2817956
000280 6e 3a 0e 3d d5 d9 81 3d 6e bc 5b bd b5 b8 74 be
       0.03472369 0.06340376 -0.053646497 -0.23898585
000290 00 e5 80 3c 85 b5 45 bb 32 8b 99 be 6f c1 65 3e
       0.015734196 -0.0030168009 -0.2998901 0.2243707
0002a0 84 4a a0 3e 3e de 9f bc fa 57 21 be e8 a3 e2 3d
       0.3130685 -0.019515153 -0.15756217 0.11066419
0002b0 88 6a ea bc ef 54 e2 bd cc 2a 3f be 6e 9f 5c bc
       -0.028615251 -0.11051356 -0.1866867 -0.013465745
0002c0 34 55 2e be 17 d9 90 be f4 78 2e 3e e8 2a 48 bc
       -0.1702469 -0.28290626 0.17038327 -0.012217261
0002d0 28 42 97 3c 46 19 41 be 90 dc ac be e1 bd 61 bd
       0.018464163 -0.18857297 -0.33762026 -0.055112723
0002e0 c3 5d ed bb 7b 63 ae 3d bc 61 2c 3e 5c 4d 82 bd
       -0.0072438433 0.08515068 0.16834158 -0.063624114
0002f0 ad 59 1f 3e e3 ef 57 bd fb bb 25 3e a5 55 41 bc
       0.15561552 -0.05271901 0.1618499 -0.011800204
000300 f9 ae 09 3d a4 7a 26 bd 00 53 9e 3c ee 33 57 3e
       0.033614133 -0.040644303 0.019326687 0.21015903
000310 35 af 0f bd 8c 31 e0 bd 9d 0b ae bc 29 21 8c bd
       -0.0350792 -0.1094695 -0.021245772 -0.06842262
000320 ac d5 07 be 06 a5 88 3b 45 39 a6 bd 4c 0b 4a 3e
       -0.13265103 0.004170063 -0.08116392 0.19730872
000330 5e 13 e7 3d a4 8b 7f 3e 1e d2 9a 3d 56 5d 7e bc
       0.11282991 0.24955612 0.07559608 -0.015525183
000340 26 b9 a3 bc b3 91 d9 bd fc 61 ad 3c 0b f1 af 3e
       -0.019985747 -0.10623493 0.021164887 0.3436359
000350 f4 b5 28 bd ab 9b 2c be db 3d ae 3d 17 4a 0c 3e
       -0.04118915 -0.16856258 0.08507892 0.13700138
000360 96 99 5c 3d ae 07 ca 3e b7 b3 27 3e b2 6c bd 3c
       0.05385741 0.39458984 0.1637715 0.023123119
000370 44 24 50 be e0 63 94 be 64 57 b0 3e 18 2d 24 bc
       -0.20326334 -0.2898245 0.34441674 -0.010020517
000380 b4 56 43 be 43 a7 50 bd 11 3f ac 3d 3c 51 59 3e
       -0.19076043 -0.050940763 0.084104665 0.21222395
000390 88 89 5b 3e ef f2 0f be 3b c3 e9 bd 70 23 f3 bd
       0.21439183 -0.14057516 -0.114141904 -0.118719935
0003a0 88 ef cb 3d 90 81 23 3d 2f 8e 7b 3d be 61 a6 3d
       0.09957796 0.039918482 0.061414894 0.081241116
0003b0 eb d2 07 be 83 6a fb bc a9 b7 2c bd f3 43 33 3e
       -0.13264053 -0.030690437 -0.04216734 0.1750639
0003c0 ae 3a 32 be b4 14 9f 3c e2 e5 03 be 3d 52 e4 bd
       -0.17405197 0.019419052 -0.12880662 -0.11148498
0003d0 0e bf 92 be 36 bf 1d be a1 69 b7 3d 22 b1 66 bd
       -0.28661388 -0.15404972 0.08955694 -0.05632127
0003e0 b9 e6 9e bd 8a 3b d9 3d 5d 6f a2 3d 40 f8 21 3d
       -0.077588506 0.10607059 0.07931397 0.03954339
0003f0 bc f7 84 3d 24 62 29 bc 2d 53 30 be c0 5a 6e bc
       0.06492564 -0.01033834 -0.17219229 -0.014548004

linear2.bias f4 [3]
000000 3d 3a fd 3c ca d8 06 be 8d 2d cf bd
       0.03091156 -0.13168636 -0.1011611
