SnakeAI/model/model.pth (torch, 16799 bytes, 4 tensors)

linear1.weight f4 [256, 11]
-0.075612724 0.5684303 -0.12682338 0.019808609 0.07203353 0.16094172 0.37373677 -0.0010492667
0.22194082 -0.034816224 -0.274379 0.2653382 -0.107686676 0.44218454 0.34997544 0.025735816
0.24844941 0.3169802 -0.10252058 0.19754617 -0.22831862 -0.2693552 -0.11484344 -0.2432697
0.1411864 -0.16530825 0.087428614 -0.11239984 -0.0062908246 0.18893252 0.0042236713 -0.26090005
-0.21256882 0.26479045 0.11934668 0.0604698 0.19804505 -0.10492279 0.12865633 0.14373673
-0.13138403 0.13123046 0.2533221 -0.2878793 0.50976354 0.014825458 0.34289524 0.056345623
0.16431041 0.286905 0.017136741 0.18731387 0.26035246 -0.103220195 0.21934497 0.17391825
0.3272892 -0.14752197 0.05732419 -0.027881414 -0.26049107 0.24762242 0.22962725 -0.23860633
0.09538655 0.28587267 -0.2340776 0.5718256 -0.13750395 -0.26444516 -0.17553408 -0.17201367
0.120000735 -0.16072522 -0.22979206 0.17833038 -0.109642014 -0.18987468 -0.023748958 -0.14955592
-0.071032256 -0.118436955 0.13336076 -0.034240857 0.02300338 -0.16221994 -0.033765506 -0.22600162
0.37572175 -0.4172197 -0.00804956 -0.072280265 0.13733064 -0.031923424 0.191085 0.17289573
0.205136 -0.14463392 0.21844836 0.016826484 0.2941121 -0.01379241 0.07095088 -0.2800276
-0.28902996 0.29732543 0.10655389 0.09588643 0.057657305 0.16684131 -0.24831541 0.06262549
0.48034734 -0.24494511 0.019355714 0.11286258 0.050598897 0.08193521 -0.07039455 -0.027490119
0.2434986 0.48374838 0.20794755 -0.27313173 -0.1068992 0.118636064 0.12484308 -0.106025584
0.05318852 0.31299478 -0.13573988 0.023912515 -0.25749928 -0.1472725 -0.06456961 0.1262974
0.25030676 0.3304911 -0.31599566 -0.33407584 0.25337222 0.10614175 -0.03789688 0.43261856
-0.35951042 0.39281645 -0.043397732 0.10369752 0.2581636 0.08386282 -0.091396704 0.27368397
-0.047469538 0.24227975 -0.10575607 0.40847152 -0.008255291 0.16147843 0.02350214 -0.065202884
0.26467156 0.31143534 0.17271751 0.2249325 0.014719955 -0.040369254 0.092622556 -0.29977632
-0.19394282 0.29971457 -0.043524243 -0.032805406 -0.013009543 0.063223146 -0.18075041 -0.34297153
-0.35688254 0.59879375 0.030315595 0.2596922 0.1294109 -0.28853267 0.16644509 0.10054963
-0.11218003 0.05945428 0.07094536 -0.18718396 -0.16865063 0.08292944 -0.2584676 0.14540862
-0.18174893 0.042928755 0.06687763 -0.075241506 0.029068166 -0.053976003 0.4731589 0.20135571
0.037357584 -0.02259283 -0.25871378 -0.018605065 0.22658837 0.23708296 -0.024798905 0.15300667
-0.1719662 0.46591586 -0.19532572 -0.21176478 0.049382247 0.066774964 0.008166881 0.113407455
0.15246768 -0.159987 0.1641172 -0.20149158 0.36519563 0.4490907 -0.20549643 0.12744236
0.11285581 -0.0070626927 0.055720974 0.035370104 0.32431522 -0.23625085 0.38715798 0.56213105
-0.52811456 0.18970129 0.081750184 0.06409057 -0.042534586 0.30569673 0.2350826 -0.098384485
0.36881194 0.1891418 0.49161318 -0.20617129 0.35659426 0.028821314 0.0063284803 -0.2710989
0.009626248 0.0016023087 -0.20907842 0.24588192 -0.0116209285 -0.12447001 0.09567892 0.19628517
00000000: d8da 9abd a684 113f fddd 01be aa45 a23c
00000010: 5186 933d e8cd 243e 6d5a bf3e 8c87 89ba
00000020: 7444 633e 759b 0ebd 677b 8cbe 69da 873e
00000030: d58a dcbd 0366 e23e fb2f b33e ebd3 d23c
00000040: 8669 7e3e 3b4b a23e 4ff6 d1bd 8b49 4a3e
00000050: 5bcc 69be ede8 89be 0a33 ebbd b11b 79be
00000060: 2b93 103e 9146 29be c60d b33d e331 e6bd
00000070: 4323 cebb 8777 413e b966 8a3b b194 85be
00000080: a4ab 59be 9d92 873e 086c f43d 2eaf 773d
00000090: 52cc 4a3e c2e1 d6bd 7cbe 033e b92f 133e
000000a0: 8989 06be 4761 063e 6fb3 813e ea64 93be
000000b0: dd7f 023f 7ae6 723c f78f af3e abca 663d
000000c0: fd40 283e 36e5 923e 5a62 8c3c 35cf 3f3e
000000d0: eb4c 853e 1c65 d3bd f89b 603e a017 323e
000000e0: 7392 a73e 0010 17be c5cc 6a3d 9067 e4bc
000000f0: 165f 85be bb90 7d3e 6823 6b3e 3855 74be
00000100: 065a c33d e75d 923e 0ab2 6fbe 2a63 123f
00000110: d6cd 0cbe 5b65 87be 35bf 33be 5a24 30be
00000120: f2c2 f53d 2795 24be 9c4e 6bbe 3d9c 363e
00000130: fe8b e0bd 826e 42be 2d8d c2bc 3025 19be
00000140: 5c79 91bd 138f f2bd b98f 083e 2440 0cbd
00000150: 9671 bc3c fc1c 26be b34d 0abd f86c 67be
00000160: 9a5e c03e d29d d5be 4de2 03bc ad07 94bd
00000170: 67a0 0c3e 23c2 02bd c9ab 433e 940b 313e
00000180: 2c0f 523e ea1a 14be edb0 5f3e b2d7 893c
00000190: dc95 963e 8ff9 61bc b24e 913d c75f 8fbe
000001a0: bcfb 93be 0a3b 983e ed38 da3d 1b60 c43d
000001b0: 112a 6c3d 73d8 2a3e 6546 7ebe cb41 803d
000001c0: 16f0 f53e e4d2 7abe e08f 9e3c 7f24 e73d
000001d0: ca40 4f3d a6cd a73d 052b 90bd f532 e1bc
000001e0: b257 793e dead f73e 34f0 543e ecd7 8bbe
000001f0: f8ed dabd 77f7 f23d bbad ff3d f123 d9bd
00000200: 35dc 593d da40 a03e 65ff 0abe 2ee4 c33c
00000210: f2d6 83be 9ace 16be 123d 84bd 1b54 013e
00000220: 3528 803e 2136 a93e 2fca a1be fd0b abbe
00000230: 01ba 813e d960 d93d c239 1bbd 2e80 dd3e
00000240: c011 b8be 3d1f c93e d2c1 31bd 5e5f d43d
00000250: 052e 843e 45c0 ab3d 322e bbbd 4e20 8c3e
00000260: 6b6f 42bd 2f18 783e a396 d8bd 2e23 d13e
00000270: 3341 07bc 9a5a 253e 8f87 c03c 1789 85bd
00000280: 0883 873e 7474 9f3e dcdc 303e b554 663e
00000290: f72b 713c 3b5a 25bd e5b0 bd3d 487c 99be
000002a0: f298 46be 3074 993e 7a46 32bd f65e 06bd
000002b0: fa25 55bc 237b 813d a316 39be f799 afbe
000002c0: 4fb9 b6be 8c4a 193f 6958 f83c 60f6 843e
000002d0: 4a84 043e 8eba 93be 9570 2a3e f7ec cd3d
000002e0: a5be e5bd 5586 733d cd4b 913d 27ad 3fbe
000002f0: c0b2 2cbe e9d6 a93d de55 84be ffe5 143e
00000300: 641c 3abe 10d6 2f3d 24f7 883d 3818 9abd
00000310: 5d20 ee3c f115 5dbd e241 f23e 3130 4e3e
00000320: 4404 193d 9914 b9bc 2276 84be a669 98bc
00000330: c806 683e e0c5 723e 1327 cbbc c8ad 1c3e
00000340: e817 30be 868c ee3e 7703 48be ded8 58be
00000350: 0a45 4a3d 50c1 883d 62ce 053c 2b42 e83d
00000360: 7d20 1c3e a2d3 23be 570e 283e cf53 4ebe
00000370: ecfa ba3e 37ef e53e a86d 52be 4080 023e
00000380: f220 e73d 296e e7bb ad3b 643d 3ee0 103d
00000390: a50c a63e beeb 71be 9239 c63e d2e7 0f3f
000003a0: 8432 07bf 0e41 423e a46c a73d eb41 833d
000003b0: bf38 2ebd 4884 9c3e 7eb9 703e ce7d c9bd
000003c0: ebd4 bc3e 63ae 413e b9b4 fb3e 911e 53be
000003d0: 8693 b63e ad1a ec3c 245f cf3b 7acd 8abe
000003e0: 69b7 1d3c 8f04 d23a a718 56be 78c8 7b3e
000003f0: b565 3ebc 22ea febd 4ff3 c33d fbfe 483e

linear1.bias f4 [256]
-0.104664885 -0.19881554 -0.22361799 -0.053055212 -0.23231113 0.23913944 0.19503702 -0.049617365
0.0066334396 -0.20845145 0.2409771 0.058836818 -0.1609808 -0.0894165 0.048882954 -0.023363587
0.08924938 -0.3045817 0.2662538 -0.13844481 -0.018104667 -0.055206884 -0.048865333 -0.26540524
0.0469456 0.24412118 -0.10320189 -0.07167861 -0.13514604 0.088344544 0.045059416 0.12890446
-0.24289215 -0.29694206 0.15837161 0.03717802 0.17467067 -0.13414769 0.23315273 -0.05444304
-0.1569149 -0.29204342 -0.06973067 0.043967422 -0.36024156 -0.053756252 0.26534018 -0.22577876
-0.096221715 0.012632519 0.2759731 -0.008107984 -0.09505607 -0.29677188 0.27829754 0.07794946
0.010493719 -0.11934876 -0.009793936 0.25927323 0.05923031 0.22491275 0.22101228 0.24574974
-0.007905712 0.15185612 0.17791803 -0.100942135 0.0097357035 0.007991433 -0.091974474 0.04690455
-0.19214219 0.2012054 -0.19998024 0.32968083 0.039571416 0.2064178 0.03430059 0.20465888
-0.2832759 -0.11046228 -0.270255 -0.25658867 0.09305713 0.0008858627 0.0062486627 -0.18513864
0.01555981 -0.025969941 0.19152431 0.034901746 0.26094466 -0.0403333 0.029093552 0.15936695
0.08321007 -0.16446382 0.094175 -0.17053264 0.087371305 -0.2228734 0.36141163 0.17660636
0.13113122 -0.20833012 -0.0006916984 0.10780144 0.13506408 0.28700274 -0.07618209 -0.085777014
-0.36806053 -0.059621915 -0.15390897 0.18086511 0.14323567 -0.2402056 -0.007511245 -0.09252692
0.06547115 0.05938357 0.06823123 -0.273733 -0.039701104 -0.04212938 0.25029987 0.04509468
0.12766178 -0.06392735 0.16156584 0.085286915 -0.1906402 0.2491308 -0.13489108 0.20214324
0.03514391 0.2615182 -0.114030644 0.27646625 0.017636172 0.22414196 -0.015837083 -0.054208852
-0.019742068 -0.10553078 0.052733917 0.039685816 -0.20088668 -0.09433809 -0.2134807 -0.051724125
0.10725958 0.2586092 0.23726055 -0.10568625 -0.12732983 -0.27060172 -0.12700965 -0.21213818
0.11652981 -0.07664135 -0.072974786 -0.23847152 -0.0010562057 0.27982777 -0.3240167 0.28277633
0.12052624 -0.29629955 -0.014182724 -0.16158581 0.02457953 0.019570287 0.05062764 0.26937452
-0.14078473 -0.038617834 -0.2620984 0.104870066 -0.2527113 -0.02442633 0.017316725 -0.08390792
0.14140607 0.005499974 0.17875652 0.22394758 0.32926363 0.12347067 0.0077850344 0.12516724
-0.115814716 -0.13139978 0.0051152627 -0.20507483 0.04849386 0.045389764 -0.0008190292 0.06628258
0.1903017 -0.10609361 0.12211418 -0.109551735 -0.20975614 0.11742644 0.10861757 0.17150356
-0.27143815 0.16841161 -0.200123 -0.073049136 -0.20924734 0.00034226052 0.16310804 0.19736682
0.11916123 0.12154182 0.06246028 0.29221064 -0.02951106 -0.01205534 -0.08817038 0.21992365
-0.12796977 0.009876435 0.32879215 0.18250218 0.041951768 0.14753155 -0.04370344 -0.014485457
0.033811152 -0.28627837 0.22001915 0.092489436 -0.0765436 0.18007016 0.1469162 -0.082408614
0.04510807 0.2996544 0.064145006 0.0656497 -0.16724746 0.021120105 0.2470823 0.14908378
-0.091463625 -0.14178653 -0.021355608 -0.15221745 0.11282017 0.13758737 -0.10168572 -0.25095856
00000000: 8b5a d6bd 4d96 4bbe 1dfc 64be 6c50 59bd
00000010: f8e2 6dbe f8e0 743e c9b7 473e 943b 4bbd
00000020: 535d d93b 4c74 55be b3c2 763e e0fe 703d
00000030: 27d8 24be ff1f b7bd 7e39 483d fe64 bfbc
00000040: 61c8 b63d 22f2 9bbe 6b52 883e 7ac4 0dbe
00000050: 3d50 94bc 9d20 62bd 0427 48bd 32e3 87be
00000060: 084a 403d e7fa 793e 835b d3bd 3ccc 92bd
00000070: b963 0abe fced b43d 3990 383d 88ff 033e
00000080: b8b8 78be ca08 98be 2b2c 223e fb47 183d
00000090: dedc 323e 035e 09be 97bf 6e3e aaff 5ebd
000000a0: 4dae 20be b786 95be f4ce 8ebd 2f17 343d
000000b0: 9571 b8be 842f 5cbd abda 873e 8c32 67be
000000c0: e40f c5bd a0f8 4e3c 594c 8d3e 5ad7 04bc
000000d0: c2ac c2bd 7cf2 97be 047d 8e3e f7a3 9f3d
000000e0: d9ed 2b3c 1f6d f4bd bf76 20bc 76bf 843e
000000f0: 7b9b 723d 874f 663e 0b51 623e d2a5 7b3e
00000100: f686 01bc 2c80 1b3e 2530 363e c0ba cebd
00000110: 8082 1f3c 80ee 023c 1d5d bcbd fc1e 403d
00000120: ecc0 44be ca08 4e3e 9fc7 4cbe edcb a83e
00000130: a315 223d 305f 533e c77e 0c3d 1992 513e
00000140: 8a09 91be 0c3a e2bd dd5e 8abe 975f 83be
00000150: bd94 be3d 3d39 683a 95c1 cc3b fc94 3dbe
00000160: 93ee 7e3c eabe d4bc f31e 443e 22f5 0e3d
00000170: 8a9a 853e 8834 25bd 9a55 ee3c 1731 233e
00000180: 0b6a aa3d 3469 28be d3de c03d 1ca0 2ebe
00000190: baef b23d ed38 64be f20a b93e 4cd8 343e
000001a0: 4347 063e 7e54 55be 1853 35ba 00c7 dc3d
000001b0: 3d4e 0a3e 06f2 923e 5b05 9cbd dcab afbd
000001c0: 6e72 bcbe 1c36 74bd 509a 1dbe b434 393e
000001d0: 5fac 123e 75f8 75be e420 f6bb c17e bdbd
000001e0: bd15 863d 303c 733d d1bc 8b3d bb26 8cbe
000001f0: a09d 22bd db8f 2cbd 4e27 803e 33b5 383d
00000200: c5b9 023e 58ec 82bd 8471 253e e8aa ae3d
00000210: 2f37 43be 251c 7f3e e320 0abe a3fe 4e3e
00000220: 10f3 0f3d b7e5 853e e688 e9bd fc8c 8d3e
00000230: bc79 903c 7885 653e c5bc 81bc 1a0a 5ebd
00000240: 1eba a1bc 8620 d8bd 85ff 573d 988d 223d
00000250: 3db5 4dbe 5434 c1bd af9a 5abe addc 53bd
00000260: e9aa db3d 6d68 843e 6ef4 723e 0872 d8bd
00000270: c062 02be 4f8c 8abe d10e 02be c03a 59be
00000280: 2ea7 ee3d 24f6 9cbd ce73 95bd e131 74be
00000290: 6270 8aba 9645 8f3e 84e5 a5be 0fc8 903e
000002a0: 76d6 f63d 93b4 97be a85e 68bc c076 25be
000002b0: 035b c93c de51 a03c ee5e 4f3d 75eb 893e
000002c0: df29 10be bc2d 1ebd c331 86be 1ec6 d63d
000002d0: 6063 81be ba19 c8bc cedb 8d3c ead7 abbd
000002e0: c1cc 103e 2039 b43b f30b 373e 8452 653e
000002f0: 3e95 a83e 31de fc3d 9a19 ff3b d72b 003e
00000300: 4430 edbd aa8d 06be ef9d a73b 23ff 51be
00000310: 7fa1 463d 9eea 393d 1fb4 56ba 29bf 873d
00000320: 73de 423e 9b47 d9bd 0017 fa3d a95c e0bd
00000330: 50ca 56be 467d f03d e372 de3d a19e 2f3e
00000340: f1f9 8abe 1874 2c3e 0bed 4cbe c99a 95bd
00000350: ef44 56be 6e71 b339 cb05 273e 871a 4a3e
00000360: ce0a f43d ebea f83d 5ad6 7f3d a29c 953e
00000370: 2ec1 f1bc c383 45bc ac92 b4bd aa33 613e
00000380: 820a 03be c5d0 213c 7257 a83e dae1 3a3e
00000390: 9ed5 2b3d 8312 173e 6102 33bd 6954 6dbc
000003a0: 907d 0a3d 1493 92be b34c 613e 1a6b bd3d
000003b0: e4c2 9cbd 5064 383e 3371 163e d9c5 a8bd
000003c0: 3dc3 383d 4d6c 993e 755e 833d 5a73 863d
000003d0: eb42 2bbe 1204 ad3c 2403 7d3e 6ba9 183e
000003e0: 4851 bbbd 7d30 11be f5f1 aebc e4de 1bbe
000003f0: 430e e73d b4e3 0c3e 9a40 d0bd a47d 80be

linear2.weight f4 [3, 256]
-0.08395147 -0.21104269 -0.037877027 -0.107816465 -0.16437526 -0.068630405 0.018722538 0.030304348
-0.12021746 0.0076523307 0.03949774 -0.18560645 0.08726041 -0.12645687 -0.057836387 0.11497835
0.06640055 0.08317715 -0.14361738 -0.12024464 -0.10753099 -0.2096969 -0.28940538 0.0026440802
0.1649265 0.0009085949 -0.10175654 0.010708055 -0.12866284 0.035353072 -0.2733513 -0.004889299
-0.17438647 -0.101905555 -0.05052502 0.059859455 -0.050650418 0.117129244 0.08813104 0.055500947
-0.29115194 0.005247635 -0.14669056 0.0038059703 0.00010367754 0.022145255 -0.05724436 -0.058875315
0.00800019 0.09636443 0.13200133 -0.21141459 -0.040094856 -0.050737925 0.094927475 -0.19482672
-0.1274517 -0.04571178 -0.11432021 0.03477507 0.065560326 -0.04574766 0.12420727 0.058355577
0.1483824 -0.17599717 -0.019942846 0.269568 -0.15654078 0.1339598 0.0038619149 0.050357074
-0.19690305 0.14820004 -0.16971922 0.012069555 0.020253805 -0.08409008 -0.03978595 0.10858129
-0.17226107 -0.145793 0.020725016 -0.13081962 0.002119853 -0.1700275 -0.26244205 -0.046439815
-0.028155897 -0.12291813 0.07677181 -0.123920634 0.12871514 -0.0033313665 -0.10061876 -0.10897769
0.032383252 0.06662768 -0.043983262 0.19441758 0.02410842 -0.081239276 0.22848135 -0.043728646
0.049129132 -0.19766909 -0.16877934 -0.20510027 -0.087429605 0.010649459 -0.12034123 0.0214909
0.039288685 -0.29547757 0.11508059 0.10681261 0.12162145 0.046971906 0.020696122 0.19186482
-0.025909208 -0.050231475 -0.13138705 -0.06723812 0.020951837 -0.13914144 -0.041509334 -0.16117124
-0.07311252 -0.21082412 -0.19751503 -0.088408515 -0.053849015 -0.1493461 0.028844144 -0.043004453
-0.13205248 0.14507833 -0.12715492 0.031129248 -0.23838682 -0.119145095 -0.036538642 -0.15814123
0.0073621497 -0.118373305 -0.2033099 -0.24739957 -0.23734972 0.047095865 -0.22482945 0.12981604
-0.077922806 -0.14074762 0.19225584 -0.05743727 -0.03526341 0.0032270039 -0.16790724 0.07597549
-0.027962258 0.044039045 -0.08939056 -0.035798326 -0.013696236 -0.028820602 -0.21124816 0.16834255
0.25818235 -0.019515153 -0.13603374 0.07727271 -0.05266662 -0.10491181 -0.22019517 -0.06277978
-0.18245155 -0.27495968 0.083730206 -0.086625494 0.018464163 -0.17995435 -0.042225912 -0.051796068
-0.006415976 0.004842626 0.0941614 -0.10626191 0.14487445 -0.10807934 0.07476016 -0.023652611
0.0186198 -0.037123293 -0.017834477 0.1732226 -0.08074911 -0.15906166 0.0018529906 -0.07943291
-0.15320721 0.004170063 -0.098642826 0.15015586 0.027987633 0.082264274 0.038387474 -0.062020008
-0.0151951015 -0.106171034 0.021164887 0.18116628 -0.024550293 -0.12630658 0.033946965 0.095668286
0.07322849 0.26818877 0.123727046 0.018988824 -0.20127326 -0.21398386 0.20416383 -0.04653463
-0.22381991 -0.07185792 0.05846212 0.1754074 0.101464204 -0.14167921 -0.060318146 -0.109395914
0.077206746 0.039918482 0.044966884 0.051101048 -0.1526453 -0.079778805 -0.08119739 0.12537114
-0.13850221 -0.0072495104 -0.1870031 -0.14734109 -0.2427055 -0.1664823 0.011509156 -0.067024514
-0.13959979 0.06755752 0.09724218 0.007645209 0.0542508 -0.09987817 -0.14217521 -0.014548004
00000000: c0ee abbd 931b 58be f124 1bbd e1ce dcbd
00000010: fd51 28be 198e 8cbd 0260 993c d340 f83c
00000020: 9234 f6bd 67c0 fa3b 62c8 213d 9e0f 3ebe
00000030: 96b5 b23d e97d 01be d9e5 6cbd c579 eb3d
00000040: 03fd 873d c858 aa3d 6f10 13be d242 f6bd
00000050: 3539 dcbd c9ba 56be f12c 94be 4e48 2d3b
00000060: 7ee2 283e c62e 6e3a bc65 d0bd d770 2f3c
00000070: 31c0 03be 62ce 103d b4f4 8bbe 6a36 a0bb
00000080: 5e92 32be dcb3 d0bd 53f3 4ebd 302f 753d
00000090: d076 4fbd 75e1 ef3d 0c7e b43d f654 633d
000000a0: de11 95be 5af4 ab3b 0d36 16be 966d 793b
000000b0: 756d d938 f769 b53c 1079 6abd 3e27 71bd
000000c0: 3b13 033c b75a c53d 5b2b 073e 117d 58be
000000d0: 813a 24bd 92d2 4fbd 5669 c23d a880 47be
000000e0: b382 02be 473c 3bbd b720 eabd 4e70 0e3d
000000f0: 7e44 863d e661 3bbd 6260 fe3d 4206 6f3d
00000100: 8ef1 173e 9a38 34be 2e5f a3bc d104 8a3e
00000110: 3a4c 20be c22c 093e 2e18 7d3b 3843 4e3d
00000120: f4a0 49be c0c1 173e e0ca 2dbe 62bf 453c
00000130: 4feb a53c 6b37 acbd 98f6 22bd de5f de3d
00000140: 3565 30be c34a 15be 82c7 a93c 94f5 05be
00000150: 3bed 0a3b b01b 2ebe ce5e 86be ad37 3ebd
00000160: 32a7 e6bc 80bc fbbd 8a3a 9d3d 1aca fdbd
00000170: e7cd 033e 0e53 5abb 3511 cebd b22f dfbd
00000180: 4da4 043d 1874 883d cb27 34bd 6715 473e
00000190: 057f c53c c760 a6bd 04f7 693e cf1c 33bd
000001a0: a13b 493d c469 4abe 7ed4 2cbe ce05 52be
000001b0: 4b0e b3bd 127b 2e3c 7675 f6bd af0d b03c
000001c0: 2ced 203d d648 97be 5faf eb3d 92c0 da3d
000001d0: ab14 f93d 9d65 403d ea8a a93c 3678 443e
000001e0: 8c3f d4bc 85bf 4dbd 548a 06be 24b4 89bd
000001f0: 30a3 ab3c 187b 0ebe b105 2abd 130a 25be
00000200: 04bc 95bd 47e2 57be 6141 4abe 860f b5bd
00000210: c990 5cbd 2fee 18be 8e4a ec3c 7025 30bd
00000220: c438 07be 6a8f 143e e634 02be c402 ff3c
00000230: ad1b 74be 5802 f4bd 8ba9 15bd c6ef 21be
00000240: 303e f13b b46d f2bd 7830 50be 5056 7dbe
00000250: ce0b 73be 98e7 403d b139 66be 7fee 043e
00000260: fe95 9fbd 2520 10be b7de 443e 5843 6bbd
00000270: 5e70 10bd 247c 533b e0ef 2bbe 0a99 9b3d
00000280: 1b11 e5bc 4962 343d 6612 b7bd 44a1 12bd
00000290: 2d66 60bc 2f19 ecbc 7051 58be fd61 2c3e
000002a0: 7a30 843e 3ede 9fbc 6e4c 0bbe 2841 9e3d
000002b0: f4b8 57bd 01dc d6bd d87a 61be af92 80bd
000002c0: 94d4 3abe 84c7 8cbe be7a ab3d b568 b1bd
000002d0: 2842 973c f445 38be 14f5 2cbd 1d28 54bd
000002e0: 1c3d d2bb e4ae 9e3b b1d7 c03d d89f d9bd
000002f0: f859 143e b358 ddbd db1b 993d 1fc3 c1bc
00000300: 8d88 983c 980e 18bd 9c19 92bc 4461 313e
00000310: ca5f a5bd 0fe1 22be 0ce0 f23a b9ad a2bd
00000320: 5ae2 1cbe 06a5 883b 4005 cabd 75c2 193e
00000330: 5246 e53c 2c7a a83d 2f3c 1d3d b108 7ebd
00000340: e0f4 78bc 3370 d9bd fc61 ad3c a783 393e
00000350: b21d c9bc 8356 01be f90b 0b3d bced c33d
00000360: d2f8 953d 0a50 893e 9b64 fd3d 738e 9b3c
00000370: 941a 4ebe 961e 5bbe 5310 513e 199b 3ebd
00000380: 0c31 65be 3f2a 93bd fa75 6f3d ff9d 333e
00000390: 77cc cf3d 5b14 11be 2910 77bd f70a e0bd
000003a0: 921e 9e3d 9081 233d 322f 383d 554f 513d
000003b0: 0d4f 1cbe 1263 a3bd d14a a6bd 4b61 003e
000003c0: 86d3 0dbe 4d8d edbb be7d 3fbe 95e0 16be
000003d0: ca87 78be 567a 2abe e690 3c3c 2644 89bd
000003e0: 3ff3 0ebe 995b 8a3d e826 c73d a984 fa3b
000003f0: 1636 5e3d ed8c ccbd 6196 11be c05a 6ebc

linear2.bias f4 [3]
-0.044517558 -0.11775582 -0.07299644
00000000: 0b58 36bd f729 f1bd 287f 95bd
