model/model.pth (torch, 16799 bytes, 4 tensors)

linear1.weight f4 [256, 11]
000000 0b 90 16 3d f7 72 85 be 1b b2 20 3e 61 a7 74 3e
       0.036758464 -0.26064274 0.15692942 0.23891975
000010 07 a6 a3 3d f5 a5 87 3e 26 75 f4 3e 77 d5 f4 bd
       0.079906516 0.26493803 0.47745627 -0.11954778
000020 96 63 8e 3c 5b f9 6b be 51 7f 9f be 26 ea 65 be
       0.01738147 -0.2304434 -0.31151822 -0.22452602
000030 82 0f 1e 3f f0 ed 1b be 4e 1f 36 be 84 a5 89 be
       0.61742413 -0.15227485 -0.1778538 -0.2688409
000040 c1 b0 98 3e 7f d5 90 3e 31 a2 b1 be ff 7f fb be
       0.29822353 0.28287885 -0.34694055 -0.4912109
000050 1d 92 49 3e b9 ce 77 3e da bb fb 3d a6 72 32 be
       0.19684644 0.24199952 0.12291689 -0.17426547
000060 e8 ce ef 3d 3f 15 5e 3e 73 56 f0 bd bc 7e 6a 3e
       0.11709386 0.21687792 -0.11735239 0.22899908
000070 e4 f3 8e be 98 ed a0 bd ad 35 5f 3e 81 c4 68 bd
       -0.2792045 -0.078578174 0.2179782 -0.056828026
000080 fd 89 cd 3d ca 02 1a 3f 66 c9 fb be f3 43 53 be
       0.10036085 0.60160506 -0.49177092 -0.2063139
000090 76 55 be 3d 25 25 70 be cf 7a 52 3e 2e a1 bb bc
       0.09293644 -0.2345167 0.2055466 -0.022904005
0000a0 bf 53 e2 3d 10 6b b5 3e 02 7a 80 3d f9 01 42 3e
       0.110511295 0.35433245 0.06273271 0.18946065
0000b0 23 1f 5e 3e 4f d7 06 3e 35 cd a4 3d c3 40 c6 bc
       0.21691565 0.13168071 0.08046953 -0.024200803
0000c0 20 d5 c6 3e 80 54 99 be a3 3b 8e be 52 cf d0 3b
       0.38834476 -0.2994728 -0.27779874 0.0063723708
0000d0 c9 15 7c 3e b2 03 36 be 83 11 6c be 3b b5 dd be
       0.24617685 -0.17774847 -0.23053555 -0.4330233
0000e0 d3 6a 26 3e 87 1c 7f 3e 04 f5 92 be 26 f4 06 be
       0.16251688 0.24913226 -0.28702557 -0.13179073
0000f0 c0 e5 52 be 51 26 b0 bd 55 c9 98 3e a1 3a 2a be
       -0.20595455 -0.08601058 0.29841104 -0.16623928
000100 e9 db 56 3e 44 f7 00 be 79 40 d6 bc 2f 42 80 be
       0.20982327 -0.12594324 -0.02615379 -0.25050494
000110 ca 14 b0 be 2c 66 d8 3b 27 75 93 bc 0e 09 b9 be
       -0.3439086 0.0066039767 -0.018000199 -0.3613972
000120 54 7c a9 3e 55 1c a6 be 68 50 da be 30 f3 82 bd
       0.33102667 -0.3244349 -0.4263947 -0.063940406
000130 aa e6 ce 3e 5a e7 1b 3f a0 54 cc be 3b 54 f1 3c
       0.40410358 0.6089989 -0.39908314 0.02945911
000140 01 65 bb 3d 08 8c 65 be 30 96 63 bd f9 be c0 bc
       0.09150124 -0.22416699 -0.05556315 -0.023528563
000150 39 20 df bc c9 10 60 3e 38 70 b9 3d 12 cd 08 3d
       -0.027237045 0.21881403 0.09054607 0.033398695
000160 23 1f 21 3d 55 8d d0 be fc c1 88 be d0 d1 1a be
       0.039336335 -0.40732828 -0.26710498 -0.151191
000170 b2 d3 8f be 7a 2f 7d 3e 8e f0 f7 3d b7 70 07 3e
       -0.28091198 0.24725142 0.12106429 0.13226591
000180 3c ce aa be e5 97 b0 be 0f 51 00 be d6 39 95 bd
       -0.3336047 -0.34490886 -0.12530921 -0.07286422
000190 f5 97 60 3c 1d 66 ff bd 2c c4 b4 3d c6 a1 b9 be
       0.013708104 -0.124706484 0.08826479 -0.36256236
0001a0 85 66 d6 3c 69 ce 56 3e 94 2f 7c be 14 73 da 3e
       0.026171932 0.20977177 -0.24627525 0.42665923
0001b0 5c 58 03 3c f9 36 31 be 08 46 93 be e3 c2 e5 3e
       0.008016672 -0.17306127 -0.28764367 0.4487525
0001c0 b7 aa f9 3d cf 17 47 3e 5b 3f 50 3e 37 24 7b 3e
       0.121907644 0.19442676 0.20336668 0.24525534
0001d0 e5 23 2b be b4 6e d2 3d 0c 20 62 3d a8 1e 4e 3e
       -0.16712911 0.10275021 0.055206344 0.20128882
0001e0 de e8 87 be c4 3f 1d be 74 54 9a 3e 0a d5 d0 3e
       -0.2654485 -0.15356356 0.30142558 0.40787536
0001f0 97 87 d3 bd 6a c7 10 be 44 c7 59 3e 80 5e 80 be
       -0.10328596 -0.1413857 0.2126742 -0.25072098
000200 b2 b3 71 3e 82 59 b7 3e 52 f7 79 be b6 c1 a4 3e
       0.23603705 0.35810477 -0.24410751 0.3217904
000210 ee 69 cb 3e 21 42 02 3f 37 87 33 be a1 e7 8b be
       0.39729255 0.50882155 -0.17532049 -0.27325156
000220 b6 ed 18 3e 1b a9 44 be c6 d3 d4 bd 82 3e 60 3d
       0.1493443 -0.19205134 -0.10391955 0.054747112
000230 c9 0a 8f 3e 64 ca 8b 3e e1 9e 8b bd b3 39 d6 3e
       0.27937916 0.2730285 -0.06817413 0.41840896
000240 d9 24 ec be 82 3b 03 3f c5 2e 1c 3e 8d 14 bb bb
       -0.46121863 0.51262677 0.15252216 -0.005709237
000250 28 15 f9 3d 14 ff 4d 3d a3 e2 e9 3d 07 34 92 3e
       0.12162238 0.05029209 0.11420181 0.2855532
000260 78 9d 60 3e f4 a7 64 3e 6d aa 96 bd a6 1a 12 3b
       0.2193507 0.22329694 -0.07356725 0.0022293716
000270 30 00 da 3e b4 36 bb bd 2b 1c e8 3e e3 a7 ab be
       0.42578268 -0.09141293 0.4533399 -0.33526525
000280 2b 34 d9 be 9d e8 8d bc c7 52 d1 3e 8a 63 a9 be
       -0.42422614 -0.017322833 0.40883467 -0.33083755
000290 9c 87 d1 be b1 22 f5 3e cc f4 4b 3e a3 11 c4 3e
       -0.40923774 0.4787803 0.19917601 0.38294706
0002a0 02 34 ec bd ed aa 8a 3d 9d 5e a7 be 51 36 4b 3e
       -0.11533357 0.06770883 -0.32689372 0.19844939
0002b0 7b 66 42 3e ce 1a af bd 66 37 4a 3e 3d 9e 1b 3e
       0.18984406 -0.085500345 0.19747695 0.15197082
0002c0 4d 26 b3 3e aa 08 bb 3e 62 55 e5 3d 0e 20 82 bd
       0.3499016 0.36530048 0.11197926 -0.0635377
0002d0 1f 61 85 3e 49 61 24 be 89 bc 81 3d d9 dd 1d 3e
       0.2605066 -0.16052736 0.06334788 0.1541666
0002e0 ee 01 57 be 31 a6 15 3e e9 83 98 3d 6c 07 d9 be
       -0.2099683 0.14614178 0.07447035 -0.42388475
0002f0 65 8d 25 3e 23 d9 f7 bd af 1b 88 be 94 5f 6e 3e
       0.16167219 -0.121019624 -0.2658362 0.23278648
000300 4e 2b 9e 3e 27 0e 9c 3e 65 85 21 bf 79 8f ab bd
       0.30892414 0.30479547 -0.6309417 -0.083769746
000310 8a 0b 8e bc 67 a8 cb bd 37 fe e6 3e 37 be 5b 3c
       -0.017339487 -0.099442296 0.45115826 0.01341205
000320 5a 33 86 3d a9 ae 12 bf 7a 01 4e 3b 5a da ee bd
       0.06552763 -0.5729776 0.0031433986 -0.11662741
000330 fb 7a 07 bb e4 3c db 3e 45 e4 28 be 1b 07 81 3e
       -0.0020672667 0.42819893 -0.16493328 0.25200734
000340 0f b1 14 be c3 86 3f be d0 3a fe 3d d6 ca 94 3d
       -0.14520667 -0.18703751 0.12413561 0.072652504
000350 14 6e 9c be 4a 99 1f 3e 5b b6 82 be 81 49 86 3d
       -0.30552733 0.15585819 -0.2552975 0.065569885
000360 d0 77 2e be 72 11 ec 3d 7a f8 d6 be c8 ca 31 3e
       -0.17037892 0.11526765 -0.41986448 0.17362511
000370 20 a4 70 be 76 a6 09 bd a4 4e c7 3c cb cf e7 bd
       -0.23500109 -0.033606015 0.024329491 -0.1131893
000380 c2 5d 1a 3e 4b 90 94 be 83 f9 e4 3e 90 26 e8 be
       0.15074828 -0.29016337 0.44721612 -0.4534192
000390 68 8a ca be 2e 4f dc be 30 2f 20 3e 7c 14 6e be
       -0.3955872 -0.4302916 0.15643 -0.23250002
0003a0 5b fc 0a 3f bb 2e 9a be 55 6f 0c bd 63 f4 15 3e
       0.54291314 -0.30113778 -0.034285862 0.14644007
0003b0 86 f5 8d 3e cc bd 2e be e6 7c a8 3d 71 b4 34 3e
       0.27726382 -0.1706459 0.082269475 0.17646958
0003c0 ef f8 89 3d 00 0b cb be 3e 08 c2 be a6 09 aa 3e
       0.067369334 -0.3965683 -0.37896913 0.33210486
0003d0 6d d1 84 be fc c1 06 be ab 43 c4 bd 53 33 a6 bd
       -0.2594103 -0.13159937 -0.09583219 -0.08115258
0003e0 20 5a e4 bd 39 c4 39 3e bf f7 49 3e c8 7b 41 be
       -0.111500025 0.18141259 0.19723414 -0.18894875
0003f0 2f df b4 3d 90 53 a3 bd 2b ec 48 3d 36 68 82 be
       0.088316314 -0.07974923 0.049053352 -0.25470132

linear1.bias f4 [256]
000000 28 05 e1 bd 00 fd 5b 3d e3 38 50 be d0 f8 3f be
       -0.109873116 0.053708076 -0.203342 -0.18747258
000010 42 6b 4f be 4e 16 81 3e 78 23 da 3c 18 76 8e bd
       -0.2025576 0.2521233 0.026628241 -0.06956118
000020 dd de 52 bd 01 25 53 bd 39 d1 8f 3e 14 c9 1c be
       -0.05148207 -0.05154896 0.28089312 -0.1531108
000030 9f 70 30 3e 52 42 6d be 83 f4 8d bc ed 8e d4 bd
       0.17230462 -0.2316983 -0.017328506 -0.103788234
000040 25 8f 14 be 59 c6 9e 3e 3d 3c f4 3d 42 28 d2 3a
       -0.1450773 0.31010702 0.11925552 0.0016033726
000050 e0 0b c0 bd 95 4a a3 3e 56 9b af 3e 78 d8 35 be
       -0.09377265 0.3189284 0.342982 -0.17758358
000060 b8 32 8d bd ef 2b 07 3e e3 32 de 3d 86 ac 5d 3d
       -0.068944395 0.13200353 0.108495496 0.05411961
000070 f8 25 7b 3e 50 e6 26 3a 97 e5 71 3d 8b 19 a4 3c
       0.24526203 0.00063667167 0.059056845 0.020031711
000080 cb 2d 8b be 25 25 13 bc f7 47 1a be 9d 02 83 be
       -0.27183375 -0.008981024 -0.15066515 -0.2558793
000090 7a c1 62 be 70 20 a7 be 25 44 41 3e 8d e9 82 be
       -0.22144118 -0.32641935 0.18873651 -0.2556881
0000a0 56 9d 9d be 1c 55 15 3e d1 71 ab bd f5 9c 1c 3c
       -0.307841 0.14583248 -0.08371318 0.009558906
0000b0 5e 57 97 bd 39 16 46 3e cf 6c 64 bd 40 e6 87 be
       -0.07389711 0.19344415 -0.05576783 -0.26542854
0000c0 68 b7 19 3b 22 d6 26 bd 99 36 f2 3d 4c 8e b2 bd
       0.0023455266 -0.040731557 0.1182682 -0.08718547
0000d0 4c c7 92 be b8 f0 55 be ad 4f 42 be a1 22 ea bd
       -0.28667676 -0.20892608 -0.18975706 -0.11432386
0000e0 64 50 65 be ff b5 d3 3e 91 f4 46 bd c2 61 4c bc
       -0.22393948 0.4134979 -0.04857308 -0.012474479
0000f0 72 86 1d be 21 3c da 3e ff 37 3c be 4f a5 08 3d
       -0.15383318 0.42624 -0.18380736 0.033360776
000100 00 32 14 3e 3c 2c fc 3d 78 6d a1 3d 2e 37 0b be
       0.14472198 0.123131245 0.07882208 -0.13595268
000110 32 72 e4 bd c3 69 9f be 7c 7e 82 3e d1 41 bb be
       -0.111545935 -0.31135377 0.25487125 -0.3657365
000120 99 38 85 bd 20 24 0e bd 1d 39 80 be 66 72 e4 3d
       -0.06504936 -0.03470242 -0.25043574 0.11154632
000130 57 f1 21 3e 1a f0 d4 bd 2a 56 9a bb 14 e5 5c be
       0.1581472 -0.10397358 -0.0047099786 -0.21571761
000140 fe 21 8d be e7 93 3f 3d 83 ab 07 be 3c 2f e6 3d
       -0.27564996 0.04677191 -0.1324902 0.11239478
000150 ab cf 49 3d 36 c7 80 bd fb 3f 2c bd 9a 3a 6d 3d
       0.049270313 -0.062879965 -0.042053204 0.057917215
000160 e6 3e 89 bb 45 c8 90 3e b3 8a 13 3d 40 21 37 be
       -0.0041884063 0.28277794 0.036020946 -0.17883778
000170 a7 2d 7b be 48 96 ef 3d 49 6c 7a bd 5e 93 69 bd
       -0.24529134 0.11698586 -0.061138425 -0.057025306
000180 24 64 a8 bc 1d ed c1 bd 08 ec 2c bd 65 0d b6 3e
       -0.020555563 -0.09469054 -0.042217284 0.35557094
000190 15 fd c5 bd 44 fe a0 bd 2c 54 87 3e 83 d2 18 be
       -0.09667412 -0.07860997 0.26431406 -0.14924054
0001a0 74 4c 41 3c e3 e8 a5 bd ec ab eb 3d a8 04 d8 3c
       0.011798013 -0.0810106 0.11507401 0.026369408
0001b0 49 0a 2d 3d 2d b2 40 3e 9c bb 35 bc d0 6c 0c 3e
       0.042246137 0.18817969 -0.011092093 0.13713384
0001c0 35 b0 80 3e 9b 12 bb 3c ae d0 f5 3d 75 42 62 3e
       0.25134435 0.02283602 0.12002693 0.22095664
0001d0 d1 63 f2 3d b5 88 e4 3e 47 68 28 3d ef a9 f3 3d
       0.11835445 0.4463555 0.04111507 0.11897647
0001e0 dd 47 64 bd ca d2 a1 bd 61 4d 9f be a5 83 c9 bc
       -0.055732597 -0.07901533 -0.31113723 -0.024598906
0001f0 9a 5e 69 be 11 15 56 3e c8 36 e0 bd 26 73 22 be
       -0.22789994 0.20906474 -0.10947949 -0.15864238
000200 82 57 1c be 5b 60 10 3e 32 c8 04 be f7 7b 11 bc
       -0.15267757 0.14099257 -0.12966993 -0.008879653
000210 1d b5 47 3e a5 1c 08 3e 59 2d 02 bd f8 22 3d 3e
       0.19502683 0.13292177 -0.03178153 0.18470371
000220 f8 da 81 be db 1b eb bd 8b 21 7d 3e 03 22 65 be
       -0.25362372 -0.114799224 0.24719827 -0.22376256
000230 2e 33 9e bc 2e 0c 55 3c 65 23 27 3e 4e 5f 6c bd
       -0.019311514 0.013003392 0.16322096 -0.057708077
000240 78 c3 b6 3d 87 4c 4b 3e 0a 94 54 be a0 33 8a be
       0.089240015 0.19853412 -0.20759597 -0.26992512
000250 fd 9f 64 bd 37 b8 70 3d 6a 1d 1c 3e a8 a9 83 bd
       -0.05581664 0.05876943 0.15245596 -0.06428844
000260 5a 6d a0 bd f5 65 12 3d e3 e8 dc 3c e7 c2 12 be
       -0.07833357 0.035741765 0.026966518 -0.14332162
000270 bd e5 e4 bd a4 95 79 3c b0 23 c7 3d d9 81 ed bd
       -0.111766316 0.015233431 0.09723604 -0.11597032
000280 54 ab a9 bc 8f f4 87 3e 62 08 af 3c 78 2b c8 bc
       -0.020711578 0.2655377 0.021366302 -0.02443479
000290 58 06 13 be 4c f8 3b be 9a c3 48 3e 48 ed 10 3e
       -0.14357889 -0.18356436 0.19605866 0.14153016
0002a0 b1 dc 31 3e fd 05 89 3d 74 42 0d 3e 1c 75 87 3c
       0.17369343 0.06690595 0.13794881 0.016535334
0002b0 1a 31 e3 3d 28 9e 2d be 32 17 18 bd 12 3e 74 3e
       0.1109335 -0.16954863 -0.037131496 0.23851803
0002c0 eb 6f 65 be 8d b4 22 3e 3f 64 f9 bd e0 92 39 bd
       -0.22405975 0.15889187 -0.121773235 -0.045306087
0002d0 28 e2 6f bc 30 de 92 be fb 36 28 be ce c5 9b be
       -0.014641322 -0.2868514 -0.16427223 -0.3042435
0002e0 e8 1b 6a 3e dc 36 23 3e 39 14 ea 3d 12 00 4b be
       0.22862208 0.15938896 0.114296384 -0.19824246
0002f0 a7 3d e0 bd 8d e2 bc bd 5a fd 87 bd 6c ad 97 3d
       -0.10949259 -0.09222899 -0.0664012 0.074061245
000300 99 2a a8 be c8 43 23 bd 18 a6 2e be fb f8 f9 bd
       -0.32845 -0.039859563 -0.17055547 -0.122056924
000310 9d 98 3a bd b0 a9 5a bd ba cf 41 3d 96 53 20 bd
       -0.0455557 -0.053384483 0.047317244 -0.039142214
000320 7f 81 56 3d c3 80 bb bd d0 a3 0e be 33 c1 74 be
       0.05236959 -0.09155419 -0.13929677 -0.23901825
000330 e1 15 89 3d 06 0f 8a be c8 0d 2b 3d 32 f9 cc ba
       0.06693626 -0.26964587 0.04176119 -0.0015638231
000340 3d f7 ad bd 09 7a 4c 3e 94 ea 7d be be d2 f0 bd
       -0.084944226 0.19968428 -0.24796516 -0.11758946
000350 f9 ee a6 bc 75 bc dc 3d 7d 62 ca bd 60 cb aa be
       -0.020377623 0.10778133 -0.098820664 -0.33358288
000360 48 e4 9c be e0 cd 29 3e 4f 59 e4 3d b8 60 5f be
       -0.30642915 0.16582441 0.11149847 -0.21814239
000370 be e3 3f bd d8 d4 a9 bd 15 d5 b0 bd 40 54 51 be
       -0.04684805 -0.0829255 -0.08634392 -0.20442295
000380 03 83 79 3d 8f 91 d1 bd 02 34 73 3e 55 ae 7f be
       0.060915958 -0.10232841 0.23750308 -0.24968846
000390 b0 74 94 be df fb 4e be 37 e3 89 3d 03 a4 13 3d
       -0.28995275 -0.20213269 0.06732791 0.036045086
0003a0 11 13 8a 3e 47 bd 97 bd 9c 69 02 3e 23 fe 3b 3d
       0.26967672 -0.07409149 0.127356 0.04589666
0003b0 a5 db 9c bd 19 d5 dc 3d bb ac 09 bd a8 be b4 bc
       -0.07659081 0.10782833 -0.033611994 -0.022063568
0003c0 c4 37 98 be 37 07 19 3e ff da 59 bd c2 92 9e bd
       -0.29730046 0.14944158 -0.053187367 -0.077428356
0003d0 ca e1 12 3d 7f ad 86 3d 86 f6 24 be f9 b9 f0 bc
       0.03585986 0.065760605 -0.16109666 -0.029385554
0003e0 84 3e df 3c 03 fa cb 3e 34 67 e8 3b 28 51 39 be
       0.02725149 0.3983918 0.007092381 -0.18097365
0003f0 1f 06 d5 3e 81 95 82 3e 6e 34 07 be f8 c6 57 be
       0.41606233 0.25504687 -0.13203594 -0.21071994

linear2.weight f4 [3, 256]
000000 40 09 3b be 5b fc b8 3e bb 74 21 be 65 f6 a8 be
       -0.18265247 0.36130032 -0.15767185 -0.33000484
000010 b0 b9 59 3e 95 7e 26 3d 3f d4 ab 3e a6 e6 29 be
       0.2126224 0.04064806 0.33560368 -0.16591892
000020 8f 71 e8 bd f6 bd aa be 1c 9d 15 3e e3 b9 24 be
       -0.113497846 -0.33348054 0.14610714 -0.16086535
000030 a5 fc a7 bd 97 8f 98 be 65 c9 96 3e d0 1a 05 be
       -0.08202485 -0.2979705 0.29450527 -0.1299851
000040 90 28 81 be 06 10 ac 3e 92 41 3b be 96 a7 13 3e
       -0.2522626 0.33605975 -0.18286732 0.14419398
000050 4f 6b bf 3e e2 b9 5b 3e 42 bb bf 3d 18 b1 85 3e
       0.37386557 0.21457627 0.093618885 0.26111674
000060 fe 82 99 3e 92 07 d5 3d 33 11 da bc d3 52 cd 3e
       0.29982752 0.104018345 -0.02661953 0.40102252
000070 84 1a fa 3c 79 e5 c9 be 79 ac 34 3e eb 2a 44 bc
       0.030530222 -0.39432886 0.17643918 -0.011973123
000080 a4 27 ab be 03 7d b6 3d d2 21 33 3c 8f 23 bb be
       -0.3342868 0.08910563 0.010933356 -0.36550567
000090 46 c3 55 bd 11 f7 d0 be 5d 00 00 3e 88 40 db bd
       -0.05218818 -0.40813497 0.12500139 -0.10705668
0000a0 bb 61 27 be df 09 aa 3b b6 4a 05 3e e2 48 f3 be
       -0.16345875 0.005189165 0.13016781 -0.47516543
0000b0 06 40 ee be b3 53 c0 be 6a de a4 bd 3b f2 2c be
       -0.4653322 -0.37563857 -0.080502346 -0.16889279
0000c0 e0 dd 82 3e db d9 11 3e 39 8d 14 bc 4b 47 8c be
       0.25559902 0.14243262 -0.009066873 -0.27398142
0000d0 eb cb b7 be d8 b0 27 be 10 65 26 3e 24 04 d2 3e
       -0.35897765 -0.16376054 0.1624949 0.41018784
0000e0 a0 63 8a be ea fa 8e 3e f6 2f db be 0a a8 5c bd
       -0.27029133 0.27925807 -0.4281003 -0.053871192
0000f0 80 17 57 be 2b d0 c5 3e 52 35 c5 bd 8e fb 45 bc
       -0.21005058 0.38635382 -0.09629311 -0.012083901
000100 f2 cc 1f 3e 7b 10 1c bd db 23 7b be 8f e3 06 bf
       0.15605524 -0.038101654 -0.24525397 -0.52690977
000110 6a 3d 1b be 45 26 c7 bd 50 31 ba 3e bd 9d c2 bc
       -0.15160146 -0.09724096 0.36365747 -0.023756856
000120 c3 b0 23 be 0b 03 da be 24 65 3c bf c6 c5 9e be
       -0.15985398 -0.42580447 -0.7359183 -0.31010264
000130 0b e1 31 3d 02 4c 1e be 6d 95 e9 bd 6e 74 03 bf
       0.04342751 -0.15458682 -0.11405454 -0.5134953
000140 d7 14 87 3c d5 f3 90 bc fc 34 65 be 79 22 b9 bc
       0.01648943 -0.017694393 -0.22383493 -0.022599446
000150 59 6b 85 bd 6b 6e e0 be 91 8f 1f be a1 3d 5a be
       -0.065146156 -0.43834242 -0.1558211 -0.21312572
000160 86 3c 49 bd 73 22 05 3f 62 07 85 3e ab f9 05 3d
       -0.049129985 0.5200569 0.25982195 0.032708805
000170 a6 fa 69 be c2 0c a8 bc 57 7c f3 bd 09 e4 c6 3b
       -0.22849521 -0.020513896 -0.1188895 0.0060696644
000180 e2 69 61 be c7 89 a2 3e 52 e5 a1 bd 51 9a 26 3e
       -0.22013047 0.3174574 -0.079050675 0.16269805
000190 3a 03 2c bc f1 9e ae 3d 25 99 57 3d b2 12 09 be
       -0.010498816 0.085264094 0.052636284 -0.13386038
0001a0 cf 34 1d be 15 93 3f 3e e6 e0 30 bd 8f 48 82 3e
       -0.15352176 0.18708451 -0.04318323 0.25445983
0001b0 10 99 8f bc 9b 21 2e 3e 41 fe 91 bd 39 4c 9c 3e
       -0.01752904 0.17005007 -0.07128573 0.30526903
0001c0 b9 26 82 3d 19 90 f8 be 8f cc 68 3d 30 69 ab 3c
       0.06355042 -0.48547438 0.056835707 0.02092418
0001d0 e0 8f 14 bd c7 0d a5 3e 07 b9 ce 3e ec 84 a2 be
       -0.036270022 0.32237074 0.4037554 -0.31742036
0001e0 c0 d7 b0 bd 5b 63 f1 be bf a8 ac 3d a3 0a 40 be
       -0.08634901 -0.47146115 0.08430623 -0.18754058
0001f0 76 49 cf be 70 b3 2b 3e 1a 67 bb bd b0 8e db be
       -0.40485734 0.16767669 -0.091505244 -0.428823
000200 20 ca eb 3c a8 4c 09 3d 82 3d d5 be ff 88 a5 3d
       0.028782904 0.03352037 -0.4164849 0.080827706
000210 fd b9 19 3e d7 b5 d2 3e 43 0a 5e 3c b5 60 11 3e
       0.15012355 0.41154358 0.013552251 0.14197047
000220 33 66 0b 3e 09 72 13 be 5d c5 74 3d fa 1a c5 bd
       0.13613205 -0.1439897 0.059758533 -0.09624286
000230 8c 45 c3 bd c2 f1 5b be 35 bf 88 3d b5 ab cd 3c
       -0.095347494 -0.21478942 0.06677095 0.02510629
000240 3a c7 90 3d e0 1d 92 3e 0f 42 2e bf 05 b9 2d be
       0.070692495 0.28538418 -0.6806955 -0.1696511
000250 9e 39 a4 3d 69 30 7f be b9 20 08 be 48 3e 3f be
       0.08018802 -0.24920811 -0.13293733 -0.18676102
000260 5c e5 75 3d cf 2a 0f 3e ba d0 e5 3c 98 ab 5f 3e
       0.060033187 0.13981174 0.02805363 0.21842802
000270 64 cf 03 3e 3d 6c 80 be 04 59 01 3e 26 8e e8 bd
       0.12872082 -0.2508258 0.12631613 -0.11355238
000280 7c a3 b8 3d 21 5b 3c 3e a0 31 a7 be 90 15 20 3e
       0.09015557 0.18394138 -0.32655048 0.15633225
000290 3c ef 6b be bf f9 47 3e 7b ce ef 3d c7 d4 14 3e
       -0.2304048 0.19528864 0.11709305 0.14534293
0002a0 58 99 68 3e 0b 62 5d 3d 14 ac c8 3c 3b 29 8a be
       0.22714746 0.05404858 0.024496116 -0.2698458
0002b0 0e b1 3c 3e 59 45 93 be e3 f3 3f bd 94 b1 0b 3e
       0.18426916 -0.28763846 -0.046863448 0.1364196
0002c0 2f 8e 59 bd 6f 37 d6 be f5 7a c3 be c6 06 e5 be
       -0.053114112 -0.41839167 -0.38179746 -0.4473173
0002d0 97 63 90 3d 7e 31 ea 39 c5 21 6a 3e ab e9 04 be
       0.07050245 0.00044668833 0.22864445 -0.12979762
0002e0 f0 c6 bb 3e a9 8a e8 3c 4f 5d 08 3e 72 92 8b bd
       0.36675215 0.02838643 0.13316844 -0.068150416
0002f0 6b 7a f0 3e 1d cf 50 bc 3a 05 0e be 4f 14 53 3e
       0.46968397 -0.012744692 -0.13869181 0.20613216
000300 06 d2 86 be ba 85 a5 bd f2 99 e5 be b4 99 09 be
       -0.2633211 -0.08082147 -0.44844013 -0.1343754
000310 c9 77 f0 3d 3c dd 21 be e5 f0 7f be eb 3b dd bd
       0.11741597 -0.1580705 -0.24994238 -0.10802444
000320 7b e5 bd bd f2 9c b8 be 98 84 5a 3c 03 c9 56 bc
       -0.092722856 -0.3605724 0.013337277 -0.013109448
000330 75 d8 d0 be ce 46 f1 bc 4d 81 a8 3b 3c 20 60 3e
       -0.40790144 -0.029452708 0.005142367 0.21887296
000340 fc 30 28 be 6f 02 e2 be b9 ac b8 be 03 c4 e8 be
       -0.16424936 -0.44142482 -0.36069277 -0.45462045
000350 15 c7 b6 be ac 36 0d bd be f8 fd bd b6 67 87 bd
       -0.35698763 -0.034475967 -0.124009594 -0.06611578
000360 d0 7e e4 bc d2 da 92 bb 13 fd d9 3e 41 cf 0e be
       -0.0278925 -0.004481652 0.42575893 -0.13946249
000370 3e fe 82 3d 1e 52 5d 3d e2 97 b4 3d b9 f8 33 3e
       0.06396149 0.05403339 0.08818032 0.17575349
000380 d0 81 82 3d 38 94 18 be ee 16 75 3e 58 26 fe bd
       0.06372416 -0.14900291 0.23934528 -0.12409657
000390 1e 7a 59 3d ef 98 6b 3e 55 c9 35 3b f1 04 3d be
       0.053094976 0.23007558 0.0027738411 -0.18458916
0003a0 84 70 11 3e 2e cd 03 be 19 f6 90 bc 64 c5 6d 3e
       0.14203078 -0.12871239 -0.017695474 0.2321983
0003b0 ff 39 01 be 8c 2b 99 3d 53 34 9a 3e d3 f9 c3 3e
       -0.1261978 0.07479009 0.30118045 0.38276538
0003c0 13 b1 52 be 3d 1e 33 3e 9f 83 c3 bc 18 bc b4 be
       -0.20575361 0.17492004 -0.023866473 -0.35299754
0003d0 f3 26 6e 3e 66 1a bd be c6 81 b6 be 7b 0f 1c 3e
       0.23257045 -0.36934203 -0.35645884 0.1524028
0003e0 ff 7a c6 3e d6 5c 86 3e bd 2a 82 bd 32 2e 98 3e
       0.38765714 0.26242703 -0.06355808 0.29722744
0003f0 92 e1 27 3e 37 a6 b9 3d 7c 39 82 3d af af 12 bf
       0.16394642 0.09064906 0.063586205 -0.5729932

linear2.bias f4 [3]
000000 61 6e 04 3e cb 69 5c bd 6c 93 17 3d
       0.12932731 -0.05381183 0.037005827
